model/keypoint_classifier/keypoint_classifier.tflite (tflite, 6352 bytes, 6 tensors)

sequential/dense_2/BiasAdd/ReadVariableOp/resource f4 [4]
0	0xbd4f1025	-0.050552506
1	0xbeb6546b	-0.3561128
2	0x3ef124cb	0.47098383
3	0xbd80ca64	-0.06288603

sequential/dense_1/BiasAdd/ReadVariableOp/resource f4 [10]
0	0x3e7263eb	0.23670928
1	0x3ccf18b5	0.025280336
2	0x3e50dfb1	0.20397831
3	0x3f1a1a9e	0.60196865
4	0x3e5db131	0.21649624
5	0x3eefeae0	0.46858883
6	0xbea1091f	-0.3145227
7	0x3e4dd29a	0.2009987
8	0xbdbf9996	-0.09355466
9	0xbe58416b	-0.21118705

sequential/dense/BiasAdd/ReadVariableOp/resource f4 [20]
0	0xbe021529	-0.12703384
1	0x3d4d5ea6	0.050139092
2	0x3ef36d4d	0.47544327
3	0xbd599899	-0.053124044
4	0xbe944b10	-0.28963518
5	0xbd4af552	-0.049550362
6	0x3d170a62	0.036875136
7	0x3f388dd0	0.7209139
8	0x3bf6ed53	0.0075356155
9	0xbc919407	-0.01777078
10	0xbdb2969f	-0.08720135
11	0xbedbe49a	-0.42947847
12	0x3e4fcd92	0.20293263
13	0xbcf6606f	-0.03007528
14	0xbea31606	-0.3185274
15	0x3e5a3504	0.21309286
16	0x3dc5fa76	0.09666912
17	0x3e7caa8c	0.24674433
18	0x3dbddacd	0.092702486
19	0x3de55d9c	0.11199495

sequential/dense/MatMul f4 [20, 42]
0	0xbd6cad58	-0.0577825
1	0x3d8040a0	0.06262326
2	0x3f0fee8a	0.56223357
3	0x3f11c797	0.56945175
4	0x3eccbacd	0.39986268
5	0x3ed7ef91	0.42174962
6	0x3ea315ea	0.31852657
7	0x3f118c80	0.5685501
8	0x3d1bdb25	0.03805079
9	0x3e95fdae	0.29295105
10	0x3e4d85ca	0.20070568
11	0x3e79f53d	0.24409957
12	0xbe6fde08	-0.23424542
13	0x3ef380c5	0.4755918
14	0xbe91b2bc	-0.28456676
15	0xbe49068d	-0.19631405
16	0x3d52976f	0.05141395
17	0xbdae9f11	-0.08526433
18	0x3e953199	0.29139403
19	0xbc8e25dd	-0.017352039
20	0x3e1ad4ad	0.15120192
21	0xbca4a137	-0.020096404
22	0x3c389dcb	0.0112680895
23	0xbeb451e0	-0.35218716
24	0xbe2cc136	-0.16870579
25	0xbf332332	-0.6997558
26	0xbda13583	-0.07871535
27	0xbe7ec407	-0.24879466
28	0xbe6dcc66	-0.23222503
29	0xbe42eb1c	-0.19035
30	0xbb3a1e38	-0.002839936
31	0xbecbb076	-0.39783067
32	0xbd69385f	-0.056938525
33	0xbf4a255e	-0.7896327
34	0x3f01605b	0.5053765
35	0x3e0f143d	0.13972564
36	0x3ddc01e0	0.10742545
37	0x3e6a2a2e	0.22867653
38	0xbdf282f7	-0.11841386
39	0xbf03e0fa	-0.5151516
40	0xbecd5a8c	-0.40108144
41	0xbf1a025a	-0.6015984
42	0x3db2005c	0.08691475
43	0x3e442060	0.19152975
44	0x3dfbfef2	0.12304486
45	0xbea2b390	-0.3177762
46	0x3ed8a992	0.42316872
47	0xbf09fffe	-0.5390624
48	0x3eb0ccff	0.345314
49	0xbe75724f	-0.23969387
50	0xbddba900	-0.107255936
51	0xbf10758d	-0.5642937
52	0x3eed04e2	0.46292788
53	0x3d3d89f6	0.046274148
54	0x3eeb0afb	0.45906815
55	0xbe1c30b5	-0.15252955
56	0x3e535a4f	0.20639919
57	0xbe3cc827	-0.18435727
58	0x3e2348ce	0.15945742
59	0xbe1c81c4	-0.15283877
60	0x3ee33338	0.44375014
61	0xbe3573f2	-0.17720011
62	0x3c004cff	0.007830857
63	0x3e055ec4	0.13024431
64	0xbe3e17dc	-0.18563789
65	0xbe66400c	-0.2248537
66	0x3cb2e483	0.021837479
67	0x3eb3f99c	0.35151374
68	0x3f0576fd	0.52134687
69	0xbe5847f1	-0.21121193
70	0x3f0d9dd1	0.55318934
71	0xbe6ba40e	-0.230118
72	0x3e6c5d4b	0.23082463
73	0x3e9c8847	0.3057272
74	0xbe9d0391	-0.30666783
75	0x3eb57a25	0.3544475
76	0x3f171908	0.5902257
77	0xbecff66e	-0.40617698
78	0x3efb5fec	0.4909662
79	0xbea17552	-0.3153482
80	0x3edd6e84	0.4324838
81	0xbe566798	-0.20937955
82	0xbe61e8aa	-0.2206141
83	0xbe4375f6	-0.19087967
84	0xbd206c58	-0.039165825
85	0xbe87e529	-0.26542023
86	0xbeb98c73	-0.36239967
87	0xbf0bc560	-0.54598045
88	0xbdd0c4e5	-0.10193805
89	0xbf31c483	-0.6944048
90	0x3b823acf	0.0039742957
91	0xbde0e91f	-0.10981964
92	0x3da39e16	0.07989137
93	0x3dc99d5a	0.098444656
94	0x3e62e4a2	0.22157529
95	0xbef68684	-0.48149502
96	0x3e3cd42d	0.18440314
97	0xbdb0f37f	-0.08640193
98	0x3eb14770	0.34624815
99	0xbea6fb02	-0.3261338
100	0x3d149694	0.036276415
101	0xbf341f29	-0.70360047
102	0x3eed091c	0.46296012
103	0xbeffde65	-0.4997436
104	0x3cb28aec	0.021794759
105	0xbe8b0e2c	-0.2715925
106	0xbdb97cfb	-0.09057041
107	0xbeab4266	-0.33449095
108	0x3dc27f12	0.09496893
109	0xbddf7a9b	-0.10912057
110	0x3e760e3a	0.24028865
111	0xbe9c35a8	-0.30509686
112	0xbcfc6aca	-0.03081264
113	0xbdc70ba2	-0.09719016
114	0x3da86fad	0.082244255
115	0xbee7bddc	-0.4526204
116	0x3dabc71b	0.08387586
117	0xbf1d9cd4	-0.61567426
118	0x3cf53bda	0.029935766
119	0x3d3c454f	0.045964535
120	0x3d765ebc	0.06014894
121	0xbd7e3c3d	-0.062069166
122	0xbe0cc7a8	-0.13748038
123	0x3d4fb096	0.050705515
124	0xbd798c3f	-0.060924765
125	0xbf1cfea2	-0.6132604
126	0xbdf16fd6	-0.11788909
127	0x3dd72930	0.10505903
128	0x3ebc0670	0.3672366
129	0x3dfb2535	0.12262956
130	0xbea5de54	-0.32396185
131	0x3e163073	0.1466692
132	0xbed567f1	-0.41680863
133	0x3cb0884f	0.021549372
134	0xbf1c3ced	-0.61030465
135	0x3e886867	0.26642153
136	0xbe347319	-0.17622031
137	0xbe1fa8e6	-0.15591773
138	0xbe6556d2	-0.223964
139	0x3e8af3a5	0.2713901
140	0x3e468258	0.1938566
141	0xbefb6875	-0.49103132
142	0x3e46dc5b	0.19419996
143	0xbec7b721	-0.39006904
144	0x3e40e8dc	0.18838829
145	0x3eccc3f4	0.3999325
146	0xbda1e39c	-0.07904741
147	0x3df18a19	0.11793918
148	0xbd183ecd	-0.037169266
149	0xbe6269b7	-0.2211064
150	0x3f2da80a	0.6783453
151	0x3cc701ca	0.024292845
152	0xbec84445	-0.39114586
153	0x3e446ab9	0.19181336
154	0xbd7dc677	-0.06195685
155	0x3e8a4ce4	0.27011788
156	0x3ece9470	0.40347624
157	0x3c9d8cb1	0.019232126
158	0x3f19ac5e	0.60028636
159	0xbe9e9aba	-0.30977422
160	0xbeb35daa	-0.35032398
161	0xbd813361	-0.06308628
162	0xbce4c669	-0.02792664
163	0xbdb3dd01	-0.087823875
164	0x3efa4b78	0.48885703
165	0x3e86d871	0.26337007
166	0x3f509e84	0.81491876
167	0xbd21d47b	-0.039509278
168	0xbe5f396b	-0.21799247
169	0x3e8a3cae	0.2699942
170	0x3f047a1a	0.5174881
171	0xbe2f87bd	-0.17141624
172	0x3f1f9ff2	0.6235343
173	0xbdc50a7d	-0.09621141
174	0x3dd30e8b	0.10305508
175	0xbd0e38a4	-0.034721985
176	0x3d713a53	0.058893513
177	0xbed9fad8	-0.4257419
178	0x3e4b2954	0.19839984
179	0xbe268241	-0.16260625
180	0xbdafd5d6	-0.08585708
181	0xbe9d06ae	-0.3066916
182	0xbdda17e2	-0.106490865
183	0xbdd5199d	-0.10405276
184	0xbe09d05b	-0.13458388
185	0x3da88975	0.08229343
186	0x3e44f6d5	0.19234784
187	0x3def40f6	0.11682312
188	0x3ed97a27	0.42476007
189	0xbddd08dc	-0.107927054
190	0x3f356f47	0.7087292
191	0xbe7f51ee	-0.24933597
192	0x3f44703b	0.7673375
193	0xbe51afc3	-0.20477204
194	0x3e4ba3cf	0.19886707
195	0xbdf3c778	-0.1190328
196	0x3ec6755e	0.3876142
197	0x3d1266b5	0.03574248
198	0x3e14c7d3	0.14529352
199	0xbedc9209	-0.43080166
200	0x3f2b2c00	0.66864014
201	0x3e2e183e	0.17001435
202	0xbe18276b	-0.14858787
203	0xbd922a3d	-0.071369626
204	0x3e0fcc96	0.14042887
205	0x3e20e173	0.15711002
206	0xbd326118	-0.043549627
207	0xbbea32ed	-0.007147184
208	0xbd6b2c00	-0.05741501
209	0x3ee82aa9	0.45345047
210	0xbe1d74bb	-0.1537656
211	0x3e67a1e0	0.22620344
212	0xbd93eb51	-0.072226174
213	0x3e195f15	0.14977677
214	0xbe8ee526	-0.279092
215	0xbe61470a	-0.21999756
216	0xbdda8f43	-0.10671856
217	0xbf087b9c	-0.5331361
218	0xbe6f422b	-0.23365085
219	0xbead1e9d	-0.3381242
220	0xbf6690ad	-0.9006451
221	0xbdaf94e1	-0.08573318
222	0xbee05ecd	-0.43822327
223	0xbe2a0721	-0.16604282
224	0xbdaa5c05	-0.083183326
225	0xbf005604	-0.5013125
226	0x3f00b3c5	0.50274307
227	0xbe8458a0	-0.25848866
228	0xbebf7faf	-0.37402102
229	0xbe0832ee	-0.13300678
230	0xbf01a38a	-0.50640166
231	0xbef4f96a	-0.47846538
232	0xbf04270f	-0.516221
233	0xbe1c1145	-0.15240963
234	0xbf1f7e2f	-0.62301916
235	0x3e07e419	0.13270606
236	0xbe3a1fb1	-0.18176152
237	0xbeb9c1e8	-0.3628075
238	0xbe8d7171	-0.2762561
239	0xbedcfb17	-0.43160316
240	0xbf2ccf9b	-0.6750428
241	0xbe62c994	-0.22147208
242	0xbee275b3	-0.44230422
243	0x3e3ea1f6	0.1861647
244	0x3e81d4d8	0.253577
245	0xbee3fe61	-0.44530013
246	0xbdfefca8	-0.12450534
247	0xbcfeaca4	-0.03108818
248	0xbd6eaf78	-0.05827281
249	0x3e960266	0.29298705
250	0xbf049b53	-0.51799506
251	0x3ed863c1	0.42263606
252	0xbd3d9280	-0.04628229
253	0x3d9a90a4	0.07547119
254	0x3e41a733	0.18911438
255	0x3e5330c6	0.20624074

sequential/dense_1/MatMul f4 [10, 20]
0	0x3ea759e7	0.32685778
1	0xbf035114	-0.5129559
2	0xbd8ee72c	-0.06977686
3	0x3f397614	0.724458
4	0x3daa557b	0.08317085
5	0x3e6ea57b	0.23305313
6	0x3ea9b3b6	0.3314492
7	0x3f77082c	0.96496844
8	0x3d9b1d2d	0.07573924
9	0x3e854c5f	0.2603483
10	0xbe588ee6	-0.21148261
11	0x3dc534ba	0.096291974
12	0xbe80843a	-0.2510088
13	0x3f000f8a	0.5002371
14	0xbf260657	-0.64853424
15	0xbf28df22	-0.65965474
16	0x3f958a2e	1.1682794
17	0xbedde611	-0.4333959
18	0xbd431092	-0.047623225
19	0x3ec47f7c	0.38378513
20	0x3f2aca20	0.6671467
21	0xbda9bc9f	-0.0828793
22	0xbed23338	-0.41054702
23	0x3f2de850	0.67932606
24	0x3d960957	0.07326
25	0xbd2d66ec	-0.042334482
26	0x3ba4deb0	0.005031429
27	0x3cf1aacf	0.029500393
28	0x3f509182	0.8147203
29	0xbf116611	-0.56796366
30	0xbedfc872	-0.43707615
31	0xbe73e48c	-0.23817652
32	0x3eb0ed3d	0.34555998
33	0xbee8eb59	-0.45492056
34	0x3f39ed09	0.7262731
35	0x3db4c348	0.088263094
36	0xbe449c47	-0.1920024
37	0xbdf24a1f	-0.11830544
38	0x3ea73b6b	0.3266252
39	0xbea5afc3	-0.32360658
40	0xbf02c276	-0.51077974
41	0x3f0df354	0.55449414
42	0x3ee8358a	0.45353347
43	0x3e961701	0.29314426
44	0x3f32c53b	0.698322
45	0x3f364c4d	0.71210176
46	0x3ef69a2e	0.48164505
47	0x3f7312ea	0.94950736
48	0xbe9c2bcc	-0.30502164
49	0x3e0eef7a	0.1395854
50	0xbe3576c0	-0.17721081
51	0xbdbb8ae1	-0.091573484
52	0x3ed9c231	0.4253097
53	0xbd34c14f	-0.044129666
54	0x3f141e11	0.5785838
55	0xbdd968f2	-0.1061572
56	0x3f6f1fe4	0.93408036
57	0xbf35af3a	-0.709705
58	0x3e3bb325	0.18330057
59	0x3f0fead8	0.5621772
60	0xbe3efc8c	-0.18651026
61	0x3e747867	0.23874055
62	0x3ea7f580	0.3280449
63	0xbf7755c4	-0.9661524
64	0xbe2823bf	-0.16419886
65	0xbe85532d	-0.2604002
66	0xbdefcec9	-0.11709363
67	0x3f3aacfa	0.7292019
68	0xbea8cecc	-0.32970273
69	0xbe81bec2	-0.2534085
70	0x3f60a7ab	0.8775584
71	0xbdd7b991	-0.10533441
72	0x3f582b79	0.84441334
73	0x3e9741a1	0.29542258
74	0xbf722590	-0.94588566
75	0x3f28b5ca	0.6590239
76	0x3f23b7de	0.63952434
77	0x3f8b939e	1.0904424
78	0x3ef02b42	0.46908003
79	0xbf3d0010	-0.7382822
80	0x3f4ca4ef	0.7993917
81	0xbf127baa	-0.57219946
82	0x3e72abbf	0.23698328
83	0x3f292e19	0.66085964
84	0x3e4e179f	0.20126198
85	0x3e9a0cfb	0.30088028
86	0x3ed3c10e	0.41358227
87	0x3ef60cc7	0.48056623
88	0x3f001c0b	0.5004279
89	0x3e4aed98	0.19817197
90	0xbf62b104	-0.88551354
91	0x3e3fd659	0.18734111
92	0xbf1f3528	-0.62190485
93	0xbda21529	-0.07914192
94	0xbf2df9aa	-0.6795908
95	0xbf548803	-0.8302004
96	0xbd64f683	-0.055899154
97	0xbea19bdd	-0.31564227
98	0xbf28ddcf	-0.65963453
99	0x3ec86697	0.3914077
100	0x3e93d7dc	0.28875625
101	0x3e8e787d	0.278263
102	0x3e96ed01	0.29477695
103	0x3f450b1c	0.76970077
104	0xbe269370	-0.1626718
105	0xbc325fe1	-0.010887117
106	0xbc9aba5d	-0.018887693
107	0x3f44150d	0.7659462
108	0x3d577666	0.052603148
109	0x3f02e1cc	0.5112579
110	0xbe59ccfc	-0.21269602
111	0xbf52a5e8	-0.822844
112	0x3ebd49f6	0.3697049
113	0x3e002e8e	0.12517759
114	0xbf09957f	-0.5374374
115	0xbef5dd46	-0.4802038
116	0x3f42b661	0.7605954
117	0x3de6d413	0.11270919
118	0xbe80d9f3	-0.25166282
119	0x3ea1f0d9	0.31629065
120	0x3f447c06	0.76751745
121	0xbe25ff12	-0.16210583
122	0x3dc3ead8	0.09566277
123	0x3e7837be	0.24240014
124	0x3f257970	0.64638424
125	0x3f377a3f	0.7167091
126	0x3ee233d7	0.44180176
127	0xbef626ed	-0.48076573
128	0x3e5928ab	0.2120692
129	0x3e9e20a5	0.3088428
130	0xbd684c61	-0.056713466
131	0x3f6b32fb	0.91874665
132	0xbe9fe7fe	-0.31231683
133	0xbefea749	-0.49737003
134	0x3f8ddae6	1.1082428
135	0x3ed35b15	0.41280428
136	0xbf6098aa	-0.87732947
137	0x3c6638a8	0.014051594
138	0x3e75a971	0.23990418
139	0x3f9412f0	1.1568279
140	0x3e74956a	0.23885122
141	0x3e22be1a	0.1589283
142	0xbec81643	-0.39079484
143	0x3f6bbbf5	0.92083675
144	0xbe0d4525	-0.13795908
145	0x3f076087	0.52881664
146	0xbe079725	-0.13241251
147	0x3d87ce50	0.06631148
148	0x3f3534b5	0.7078355
149	0x3f782926	0.9693779
150	0xbe0f02e9	-0.13965954
151	0xbe455dac	-0.19274014
152	0xbf24f312	-0.64433396
153	0xbea65b8c	-0.3249172
154	0x3eccd51a	0.40006334
155	0xbeaf48bf	-0.34235188
156	0x3f248fa3	0.6428167
157	0xbe8850ff	-0.26624295
158	0xbdec7052	-0.11544861
159	0x3e3abe1a	0.1823658
160	0x3ce66fde	0.028129514
161	0xbcf465ce	-0.0298337
162	0xbe5950d0	-0.21222234
163	0xbe5c6ec4	-0.21526629
164	0x3dbbccf7	0.09169953
165	0xbee54ebd	-0.44786635
166	0xbccff420	-0.025384963
167	0x3d998dc9	0.074977465
168	0x3dd3f63a	0.10349698
169	0x3e9338be	0.28754228
170	0x3e45e8b7	0.19327055
171	0x3ddc0a71	0.10744179
172	0x3de81a24	0.11333111
173	0xbeb8e109	-0.36109188
174	0x3ef3dc1e	0.47628874
175	0xbe39fe23	-0.18163352
176	0x3e992aae	0.29915375
177	0xbeb1e82b	-0.34747443
178	0x3e2e3ef0	0.17016196
179	0x3ec4652f	0.38358447
180	0xbf27842d	-0.6543606
181	0x3f0cc53b	0.5498845
182	0xbd87b409	-0.06626136
183	0xbe5873c5	-0.21137913
184	0x3e50b8ae	0.2038295
185	0x3e55b4a5	0.20869692
186	0x3e1706ff	0.14748763
187	0xbece4088	-0.40283608
188	0xbf2e56d0	-0.68101215
189	0xbf071214	-0.5276196
190	0x3f2aad38	0.6667056
191	0x3efe61e3	0.49684057
192	0x3f3b0e66	0.73068845
193	0xbe3733d1	-0.1789086
194	0x3f3144bb	0.692455
195	0x3e63fce1	0.22264434
196	0x3e3c405e	0.18383929
197	0x3d128eb1	0.035780612
198	0x3f90cbd9	1.1312209
199	0x3d1d74a4	0.038441315

sequential/dense_2/MatMul f4 [4, 10]
0	0x3ec3e94c	0.3826393
1	0xbf30b536	-0.69026506
2	0x3f083ec5	0.5322078
3	0xbfab1617	-1.3366116
4	0x3f6f6b59	0.93523175
5	0x3f295810	0.6615
6	0x3f0d5bbd	0.55218107
7	0x3f78b5bd	0.9715231
8	0xbf18542b	-0.5950343
9	0xbf818ebf	-1.0121688
10	0xbefaf8e1	-0.49018005
11	0x3ff0dca7	1.8817338
12	0x3f391238	0.72293425
13	0xbf128b58	-0.5724387
14	0xbfbf91f6	-1.4966419
15	0xbf875dab	-1.057546
16	0x3f21ee7d	0.6325453
17	0xbe9a27f8	-0.3010862
18	0x3ea41a3f	0.32051274
19	0x3fa974c1	1.3238755
20	0x3dabb777	0.083846025
21	0xc00aefe6	-2.1708922
22	0x3f1954e7	0.59895176
23	0x3f0fcf51	0.56175715
24	0xbf20fc18	-0.62884665
25	0x3f574f72	0.841056
26	0xbfe6c570	-1.8029003
27	0xbf224cee	-0.63398635
28	0xbeedc177	-0.46436664
29	0xbe87b70f	-0.2650685
30	0xbf40ae2b	-0.7526576
31	0xbf356e8b	-0.708718
32	0xbf6d4dba	-0.92696726
33	0x3d4355ad	0.04768913
34	0xbe9a6f7c	-0.3016318
35	0xbe6086ec	-0.21926469
36	0x3f54a843	0.83069247
37	0xbfe1d2bb	-1.7642435
38	0x3ed82afe	0.422203
39	0xbf05ec67	-0.52313846
